LeNet
DTN
AddaNet
fcn8s
drn26
drn42
Calibrator
CalibratorNet
-------Training net--------
DTNClassifier(
  (conv_params): Sequential(
    (0): Conv2d(3, 64, kernel_size=(5, 5), stride=(2, 2), padding=(2, 2))
    (1): BatchNorm2d(64, eps=1e-05, momentum=0.1, affine=True, track_running_stats=True)
    (2): Dropout2d(p=0.1)
    (3): ReLU()
    (4): Conv2d(64, 128, kernel_size=(5, 5), stride=(2, 2), padding=(2, 2))
    (5): BatchNorm2d(128, eps=1e-05, momentum=0.1, affine=True, track_running_stats=True)
    (6): Dropout2d(p=0.3)
    (7): ReLU()
    (8): Conv2d(128, 256, kernel_size=(5, 5), stride=(2, 2), padding=(2, 2))
    (9): BatchNorm2d(256, eps=1e-05, momentum=0.1, affine=True, track_running_stats=True)
    (10): Dropout2d(p=0.5)
    (11): ReLU()
  )
  (fc_params): Sequential(
    (0): Linear(in_features=4096, out_features=512, bias=True)
    (1): BatchNorm1d(512, eps=1e-05, momentum=0.1, affine=True, track_running_stats=True)
  )
  (classifier): Sequential(
    (0): ReLU()
    (1): Dropout(p=0.5)
    (2): Linear(in_features=512, out_features=10, bias=True)
  )
  (criterion): CrossEntropyLoss()
)
get dataset: svhn ./svhn train
Using downloaded and verified file: ./svhn/train_32x32.mat
get dataset: svhn ./svhn test
Downloading http://ufldl.stanford.edu/housenumbers/test_32x32.mat to ./svhn/test_32x32.mat
Training DTN model for svhn
[Train] Epoch: 0 [0/73257 (0%)]	Loss: 2.728143  Acc: 6.25
[Train] Epoch: 0 [12800/73257 (17%)]	Loss: 2.361248  Acc: 10.16
…
[Train] Epoch: 9 [25600/73257 (35%)]	Loss: 0.314606  Acc: 91.41
[Train] Epoch: 9 [38400/73257 (52%)]	Loss: 0.315409  Acc: 88.28
[Train] Epoch: 9 [51200/73257 (70%)]	Loss: 0.304108  Acc: 89.84
[Train] Epoch: 9 [64000/73257 (87%)]	Loss: 0.411440  Acc: 84.38
Evaluating DTN-svhn model on svhn test set
[Evaluate] Average loss: 0.3185, Accuracy: 23518/26032 (90.00%)

Saving to results/svhn_to_mnist/iter_1/DTN_net_svhn.pth
initialize network with normal
CalibratorNet(
  (cls_criterion): CrossEntropyLoss()
  (gan_criterion): CrossEntropyLoss()
  (src_net): DTNClassifier(
    (conv_params): Sequential(
      (0): Conv2d(3, 64, kernel_size=(5, 5), stride=(2, 2), padding=(2, 2))
      (1): BatchNorm2d(64, eps=1e-05, momentum=0.1, affine=True, track_running_stats=True)
      (2): Dropout2d(p=0.1)
      (3): ReLU()
      (4): Conv2d(64, 128, kernel_size=(5, 5), stride=(2, 2), padding=(2, 2))
      (5): BatchNorm2d(128, eps=1e-05, momentum=0.1, affine=True, track_running_stats=True)
      (6): Dropout2d(p=0.3)
      (7): ReLU()
      (8): Conv2d(128, 256, kernel_size=(5, 5), stride=(2, 2), padding=(2, 2))
      (9): BatchNorm2d(256, eps=1e-05, momentum=0.1, affine=True, track_running_stats=True)
      (10): Dropout2d(p=0.5)
      (11): ReLU()
    )
    (fc_params): Sequential(
      (0): Linear(in_features=4096, out_features=512, bias=True)
      (1): BatchNorm1d(512, eps=1e-05, momentum=0.1, affine=True, track_running_stats=True)
    )
    (classifier): Sequential(
      (0): ReLU()
      (1): Dropout(p=0.5)
      (2): Linear(in_features=512, out_features=10, bias=True)
    )
    (criterion): CrossEntropyLoss()
  )
  (calibrator_net): Calibrator(
    (cali): ResnetGenerator(
      (model): Sequential(
        (0): ReflectionPad2d((3, 3, 3, 3))
        (1): Conv2d(3, 32, kernel_size=(7, 7), stride=(1, 1), bias=False)
        (2): BatchNorm2d(32, eps=1e-05, momentum=0.1, affine=True, track_running_stats=True)
        (3): ReLU(inplace)
        (4): Conv2d(32, 64, kernel_size=(3, 3), stride=(2, 2), padding=(1, 1), bias=False)
        (5): BatchNorm2d(64, eps=1e-05, momentum=0.1, affine=True, track_running_stats=True)
        (6): ReLU(inplace)
        (7): Conv2d(64, 128, kernel_size=(3, 3), stride=(2, 2), padding=(1, 1), bias=False)
        (8): BatchNorm2d(128, eps=1e-05, momentum=0.1, affine=True, track_running_stats=True)
        (9): ReLU(inplace)
        (10): ResnetBlock(
          (conv_block): Sequential(
            (0): ReflectionPad2d((1, 1, 1, 1))
            (1): Conv2d(128, 128, kernel_size=(3, 3), stride=(1, 1), bias=False)
            (2): BatchNorm2d(128, eps=1e-05, momentum=0.1, affine=True, track_running_stats=True)
            (3): ReLU(inplace)
            (4): ReflectionPad2d((1, 1, 1, 1))
            (5): Conv2d(128, 128, kernel_size=(3, 3), stride=(1, 1), bias=False)
            (6): BatchNorm2d(128, eps=1e-05, momentum=0.1, affine=True, track_running_stats=True)
          )
        )
        (11): ResnetBlock(
          (conv_block): Sequential(
            (0): ReflectionPad2d((1, 1, 1, 1))
            (1): Conv2d(128, 128, kernel_size=(3, 3), stride=(1, 1), bias=False)
            (2): BatchNorm2d(128, eps=1e-05, momentum=0.1, affine=True, track_running_stats=True)
            (3): ReLU(inplace)
            (4): ReflectionPad2d((1, 1, 1, 1))
            (5): Conv2d(128, 128, kernel_size=(3, 3), stride=(1, 1), bias=False)
            (6): BatchNorm2d(128, eps=1e-05, momentum=0.1, affine=True, track_running_stats=True)
          )
        )
        (12): ResnetBlock(
          (conv_block): Sequential(
            (0): ReflectionPad2d((1, 1, 1, 1))
            (1): Conv2d(128, 128, kernel_size=(3, 3), stride=(1, 1), bias=False)
            (2): BatchNorm2d(128, eps=1e-05, momentum=0.1, affine=True, track_running_stats=True)
            (3): ReLU(inplace)
            (4): ReflectionPad2d((1, 1, 1, 1))
            (5): Conv2d(128, 128, kernel_size=(3, 3), stride=(1, 1), bias=False)
            (6): BatchNorm2d(128, eps=1e-05, momentum=0.1, affine=True, track_running_stats=True)
          )
        )
        (13): ResnetBlock(
          (conv_block): Sequential(
            (0): ReflectionPad2d((1, 1, 1, 1))
            (1): Conv2d(128, 128, kernel_size=(3, 3), stride=(1, 1), bias=False)
            (2): BatchNorm2d(128, eps=1e-05, momentum=0.1, affine=True, track_running_stats=True)
            (3): ReLU(inplace)
            (4): ReflectionPad2d((1, 1, 1, 1))
            (5): Conv2d(128, 128, kernel_size=(3, 3), stride=(1, 1), bias=False)
            (6): BatchNorm2d(128, eps=1e-05, momentum=0.1, affine=True, track_running_stats=True)
          )
        )
        (14): ConvTranspose2d(128, 64, kernel_size=(3, 3), stride=(2, 2), padding=(1, 1), output_padding=(1, 1), bias=False)
        (15): BatchNorm2d(64, eps=1e-05, momentum=0.1, affine=True, track_running_stats=True)
        (16): ReLU(inplace)
        (17): ConvTranspose2d(64, 32, kernel_size=(3, 3), stride=(2, 2), padding=(1, 1), output_padding=(1, 1), bias=False)
        (18): BatchNorm2d(32, eps=1e-05, momentum=0.1, affine=True, track_running_stats=True)
        (19): ReLU(inplace)
        (20): ReflectionPad2d((3, 3, 3, 3))
        (21): Conv2d(32, 3, kernel_size=(7, 7), stride=(1, 1))
        (22): Tanh()
      )
    )
  )
  (discriminator): Sequential(
    (0): Linear(in_features=10, out_features=500, bias=True)
    (1): ReLU()
    (2): Linear(in_features=500, out_features=500, bias=True)
    (3): ReLU()
    (4): Linear(in_features=500, out_features=2, bias=True)
  )
)
Training Adda DTN model for svhn->mnist
get dataset: svhn ./svhn train
Using downloaded and verified file: ./svhn/train_32x32.mat
get dataset: svhn ./svhn test
Using downloaded and verified file: ./svhn/test_32x32.mat
get dataset: mnist ./mnist train
Downloading http://yann.lecun.com/exdb/mnist/train-images-idx3-ubyte.gz
Downloading http://yann.lecun.com/exdb/mnist/train-labels-idx1-ubyte.gz
…
